grammars/ebm_ckpts/ebm_checkpoint_last.pt (torch, 15038 bytes, 12 tensors)

aggregator.embedding_tgt.weight f4 [1, 16]
-0.077215105 0.19753644 0.11831371 0.14811385 0.074958086 0.093742624 0.088038325 0.34110793
0.32117134 -0.1018006 -0.44581696 -0.33380616 -0.056961786 0.1900849 -0.30628484 -0.09298939
00000000: f422 9ebd fe46 4a3e 754e f23d 28ab 173e
00000010: a083 993d 22fc bf3d 704d b43d b3a5 ae3e
00000020: 9270 a43e d57c d0bd 1f42 e4be a4e8 aabe
00000030: c350 69bd 9ea5 423e 5ed1 9cbe 3971 bebd

aggregator.bin_agg.imp.weight f4 [16, 32]
0.12300908 0.03811677 0.07002039 -0.060212955 -0.06764874 -0.1869846 -0.12573673 -0.15305167
-0.09519016 0.08666375 0.09630511 0.11845865 -0.051255424 -0.09366685 0.009955199 -0.04806341
-0.08274301 0.10463011 0.08226879 -0.13080345 0.091730215 -0.066005 -0.123194516 -0.13018632
0.035782225 -0.11507814 -0.13121773 0.048688665 0.011410166 0.16728066 -0.16030431 -0.15052432
-0.17798112 0.16244975 0.21596105 0.13473997 0.14941745 -0.0058815405 -0.045689087 -0.102916785
-0.068901345 -0.0983919 -0.14391266 -0.122373834 0.08158105 0.20484401 -0.11831347 0.12535165
-0.06450196 0.037370894 0.040657934 0.06864993 -0.04515209 -0.16653281 -0.13639368 0.065598726
0.06645261 -0.10705695 0.1895635 -0.07669633 -0.09727124 -0.0074720886 0.1579711 -0.07325255
-0.07034581 0.07449934 0.014624675 -0.0742666 0.06407124 -0.10406825 0.22870074 0.124819964
0.075787425 -0.010000764 -0.14222828 0.023158183 0.11870907 -0.054648977 -0.05817222 0.124574505
0.026160428 0.09589226 -0.16376178 -0.009704754 -0.046952292 -0.0745441 0.093010135 -0.123571806
0.03959336 0.0018502424 0.21397826 0.20942952 -0.03037839 -0.23525572 0.15113588 0.06921122
0.005557084 0.072491944 0.05990314 -0.13216178 -0.020981574 0.08030542 -0.04529507 0.03674275
0.11244936 0.09368597 -0.051425457 -0.015252494 0.122815065 -0.07076671 0.08682799 0.09224838
0.17415053 -0.17631266 0.029395258 0.13992962 0.090543136 0.055597138 0.17944725 -0.22864485
0.06589774 0.04437697 0.20184855 0.100903936 0.061751023 -0.10290931 0.12664783 -0.16457568
0.088917024 0.16536255 0.031140683 -0.066314965 0.13689256 0.009315569 0.25963548 -0.08617735
0.0742162 -0.008438528 0.025391592 0.13679777 -0.15364371 0.12477782 -0.12669748 -0.18339454
0.06547089 0.099478774 -0.006175604 -0.04601059 0.12008595 0.044209108 0.0643816 -0.0024296043
-0.044537872 -0.02727921 0.028595757 -0.16605823 -0.0980539 0.006661328 0.07614782 0.089563556
0.14974369 -0.0010474885 0.12562735 -0.108087584 0.1682834 0.17720394 -0.050147124 -0.13692081
0.03927046 0.052300278 -0.09065252 -0.12107351 0.14606662 0.11894901 -0.098297626 0.14725235
0.15244341 -0.12374089 0.053457875 0.17762977 -0.062363684 0.03400108 -0.10693801 -0.010212406
0.1264413 0.009565672 0.16448979 0.13095844 -0.1811298 0.06368525 0.2205315 -0.15044867
0.16842231 -0.22269997 -0.106517166 -0.1629731 0.11762796 -0.103675395 -0.09174843 -0.17351155
0.058251403 0.17954426 -0.104661256 0.12056114 -0.010698088 -0.020642273 0.13453601 0.07707184
-0.09435179 -0.053568956 0.09642493 0.08495973 -0.118784055 -0.12688205 0.13769099 -0.107762516
0.08811598 -0.104522064 -0.041564904 0.039042667 -0.08113148 -0.055241648 0.07993781 -0.14982556
-0.10008229 0.17096093 0.14242111 -0.14460488 0.06530195 0.056775972 -0.022551011 -0.005845684
0.086985156 -0.1443828 0.07867984 -0.034686077 0.11197635 0.18904029 -0.19181375 0.10192888
-0.059794147 -0.004048587 -0.13383116 0.1265134 0.0031668374 -0.03005253 -0.14064847 -0.09179439
-0.1763013 -0.13294521 -0.103510655 0.05653955 0.16703309 -0.012233171 -0.12229691 0.032233793
00000000: 2fec fb3d 5520 1c3d da66 8f3d dca1 76bd
00000010: 6c8b 8abd e478 3fbe 21c1 00be 94b9 1cbe
00000020: 0ff3 c2bd c47c b13d 9d3b c53d 739a f23d
00000030: 35f1 51bd 68d4 bfbd 221b 233c 23de 44bd
00000040: 2b75 a9bd 5048 d63d 8a7c a83d 57f1 05be
00000050: 0ddd bb3d a12d 87bd 684d fcbd 904f 05be
00000060: 6290 123d 16ae ebbd f15d 06be c46d 473d
00000070: b4f1 3a3c 9f4b 2b3e d026 24be 0c23 1abe
00000080: af40 36be 3a59 263e e524 5d3e 46f9 093e
00000090: e300 193e f0b9 c0bb 7b24 3bbd 09c6 d2bd
000000a0: 261c 8dbd b181 c9bd d75d 13be 229f fabd
000000b0: f713 a73d a1c2 513e 554e f2bd 2f5c 003e
000000c0: 9b19 84bd 3912 193d ef88 263d 5698 8c3d
000000d0: 66f1 38bd 9487 2abe c9aa 0bbe a058 863d
000000e0: 4e18 883d ad40 dbbd ef1c 423e f712 9dbd
000000f0: 2536 c7bd 6cd8 f4bb 2dc3 213e 6f05 96bd
00000100: 7711 90bd 1c93 983d 559c 6f3c 1619 98bd
00000110: c837 833d bc21 d5bd 8730 6a3e 9ca1 ff3d
00000120: 7036 9b3d 3fda 23bc 4aa4 11be 3bb6 bd3c
00000130: be1d f33d 9bd7 5fbd fe45 6ebd eb20 ff3d
00000140: 654e d63c 2963 c43d 2bb1 27be b000 1fbc
00000150: 0c51 40bd 94aa 98bd 197c be3d 3713 fdbd
00000160: a62c 223d d583 f23a 1e1d 5b3e b174 563e
00000170: 1adc f8bc e0e6 70be 5dc3 1a3e 9dbe 8d3d
00000180: 3318 b63b a876 943d ff5c 753d 6b55 07be
00000190: 8de1 abbc 2b77 a43d 5387 39bd 917f 163d
000001a0: da4b e63d 6ede bf3d 80a3 52bd 99e5 79bc
000001b0: 7786 fb3d 23ee 90bd e0d2 b13d b8ec bc3d
000001c0: 8454 323e 4e8b 34be 53ce f03c b649 0f3e
000001d0: ae6e b93d d3b9 633d 05c1 373e e021 6abe
000001e0: 65f5 863d a0c4 353d 63b1 4e3e b9a6 ce3d
000001f0: a4ee 7c3d 1ec2 d2bd f8af 013e 8786 28be
00000200: 211a b63d cd54 293e bf1a ff3c 24d0 87bd
00000210: 902d 0c3e 54a0 183c f1ee 843e c07d b0bd
00000220: aafe 973d c041 0abc 0702 d03c b714 0c3e
00000230: c754 1dbe 848b ff3d fcbc 01be c7cb 3bbe
00000240: 9a15 863d 87bb cb3d b95c cabb 9a75 3cbd
00000250: 9fef f53d 9c14 353d 80da 833d ff39 1fbb
00000260: 586d 36bd a678 dfbc a641 ea3c 2b0b 2abe
00000270: 7cd0 c8bd 4547 da3b 63f3 9b3d 196d b73d
00000280: 6956 193e e24b 89ba 75a4 003e 065d ddbd
00000290: 7c52 2c3e f374 353e 1267 4dbd f834 0cbe
000002a0: 10da 203d d138 563d 07a8 b9bd 63f5 f7bd
000002b0: 7d92 153e 8a9b f33d 4450 c9bd 52c9 163e
000002c0: 201a 1c3e dd6b fdbd a5f6 5a3d 94e4 353e
000002d0: 1071 7fbd b744 0b3d 5102 dbbd ef51 27bc
000002e0: d479 013e 56b9 1c3c 0370 283e f819 063e
000002f0: 177a 39be 6a6d 823d 02d3 613e 370f 1abe
00000300: e676 2c3e 760b 64be ac25 dabd 6ce2 26be
00000310: eee6 f03d c453 d4bd 9ae6 bbbd 03ad 31be
00000320: 0699 6e3d 73da 373e a458 d6bd c2e8 f63d
00000330: 0947 2fbc fc19 a9bc cfc3 093e d7d7 9d3d
00000340: 833b c1bd 1f6b 5bbd 6f7a c53d 5eff ad3d
00000350: 0e45 f3bd 5eed 01be defe 0c3e 98b2 dcbd
00000360: 2776 b43d aa0f d6bd f63f 2abd 34eb 1f3d
00000370: 4328 a6bd 1145 62bd 6fb6 a33d df6b 19be
00000380: f2f7 ccbd 6210 2f3e d7d6 113e 4d13 14be
00000390: 07bd 853d ec8d 683d e6bc b8bc 278d bfbb
000003a0: 4625 b23d 16d9 13be e522 a13d fd12 0ebd
000003b0: db53 e53d c793 413e d36a 44be 17c0 d03d
000003c0: b5ea 74bd 02aa 84bb 090b 09be bb8c 013e
000003d0: b78a 4f3b b930 f6bc 2706 10be b2fe bbbd
000003e0: 5488 34be ca22 08be 65fd d3bd 0496 673d
000003f0: b90a 2b3e a36d 48bc cd76 fabd 9507 043d

aggregator.bin_agg.imp.bias f4 [16]
0.03530556 0.08234271 0.2038418 0.12479098 -0.070734784 0.042040676 -0.14595443 0.15637922
-0.13463001 0.060659256 0.024461016 0.16862774 -0.110445976 0.025337515 -0.031534985 0.055320222
00000000: 909c 103d 4ba3 a83d e8bb 503e 6a92 ff3d
00000010: 66dd 90bd d832 2c3d 1475 15be e021 203e
00000020: 73dc 09be d775 783d 7862 c83c c0ac 2c3e
00000030: 8031 e2bd 9f90 cf3c d42a 01bd 7597 623d

aggregator.bin_agg.hidden.1.weight f4 [16, 16]
0.22066106 0.20922177 0.060232047 0.26085755 -0.12675767 0.086196914 0.2965058 0.13975412
-0.08040203 0.2992903 -0.25445414 -0.2588979 0.044688284 -0.029943172 0.07516741 0.26917037
-0.063291855 -0.008091676 -0.13656788 0.25430802 -0.06370827 -0.049278904 0.2996656 -0.20589201
0.021958668 0.21782917 -0.15756695 0.22406667 0.16444187 0.07259692 0.2388553 0.28709573
-0.12032358 -0.031470686 -0.26044986 -0.25586483 0.18925793 0.061647538 -0.08868449 0.188903
0.13169347 -0.29043403 -0.014932431 0.02719023 0.14606152 -0.14204544 -0.0711632 -0.09762371
-0.031064881 0.08619308 -0.044238836 0.21054861 0.2399029 0.21135332 0.075530544 -0.14765444
0.14923483 0.030551355 0.18824565 0.17983052 0.1528965 0.015182037 -0.06373928 0.20473523
0.0034936669 -0.0013967415 -0.105092645 -0.15358794 0.048939027 -0.0019261498 -0.08613375 0.23478349
-0.1731975 -0.099412575 0.28095242 0.22737369 -0.22421286 0.15445767 0.15922764 -0.07190606
-0.12795413 -0.021688284 -0.0761696 0.21757142 0.09248853 0.16172047 -0.013439421 0.13565764
0.12458451 -0.25224257 0.08587124 -0.15584843 0.06919774 -0.12381691 -0.13929957 0.23271465
-0.21284969 0.13212883 0.2643177 0.0935457 0.16793628 0.21854897 -0.13516568 -0.05587043
-0.22172284 0.26526022 0.0671874 -0.11775555 0.05055822 -0.12451712 -0.029104518 0.15090352
-0.0011043734 -0.21859078 -0.03991806 -0.25558633 0.21641682 -0.22063784 -0.16567235 -0.024948549
-0.14834787 -0.101731904 -0.11877616 0.07450571 0.016569292 0.089181066 0.090045996 -0.083124354
-0.1454501 -0.07208664 0.113914974 -0.01465248 0.15880892 -0.19937643 -0.21228275 -0.036492843
0.06160655 0.101748124 0.24679427 0.0034793098 -0.23600192 0.25371337 0.0052288743 -0.18700288
-0.0009779242 0.16690631 0.024667606 -0.02580885 0.06556514 0.14112149 0.03938146 -0.12271662
0.048766337 -0.04669212 0.14210126 -0.28505832 0.25858104 0.08189614 0.26350752 0.10317455
-0.18062238 -0.0653242 -0.050179522 -0.0646672 -0.050006982 -0.055311672 -0.09438995 -0.11767675
-0.18359211 0.12219413 -0.14719847 -0.108195916 0.28729546 0.1471214 0.02624827 0.28159782
0.019363575 0.2545309 0.013267052 0.044174828 -0.100722045 -0.15894297 -0.22283742 0.24504085
0.008727498 0.18353777 0.102078065 0.06811092 -0.19256973 -0.007121499 0.04169329 -0.19284539
0.23470344 -0.10040788 -0.0963133 -0.10590602 0.07239357 0.06813366 -0.07347335 -0.010225892
-0.16521926 0.06987393 0.10857083 -0.15589277 0.21862122 -0.14597714 0.22507621 0.23600537
-0.06946007 -0.1581224 -0.1657708 0.21136639 -0.26693833 0.11913894 0.23109154 -0.069136634
0.15140058 0.022966996 0.044578113 -0.16304022 0.2795233 0.059976123 0.23013039 -0.1441115
-0.27040142 0.028793283 0.2869332 0.2034667 0.009841156 0.10038606 -0.21904194 -0.019580267
-0.078731745 -0.26541108 -0.14648013 -0.13253953 -0.20270462 0.2179924 0.068521805 -0.14741188
-0.13314998 -0.15873349 0.1263328 -0.2733731 -0.08024544 -0.09909708 -0.20171267 -0.17622751
0.24629872 0.11895603 0.15119919 -0.019036729 0.077745415 0.20147842 -0.054611802 0.14694925
00000000: f9f4 613e 3b3e 563e e1b5 763d 1f8f 853e
00000010: c3cc 01be 0288 b03d 9ccf 973e b41b 0f3e
00000020: d2a9 a4bd 943c 993e d047 82be 448e 84be
00000030: 100b 373d 624b f5bc 5ff1 993d b3d0 893e
00000040: 299f 81bd f392 04bc 73d8 0bbe a934 823e
00000050: 7b79 82bd add8 49bd c56d 993e 5bd5 52be
00000060: aae2 b33c 9c0e 5f3e 3b59 21be bc71 653e
00000070: 7363 283e b2ad 943d 7c96 743e 36fe 923e
00000080: 366c f6bd 68e7 00bd af59 85be b700 83be
00000090: d5cc 413e 2182 7c3d 37a0 b5bd ca6f 413e
000000a0: a7da 063e c5b3 94be 28a7 74bc 0cbe de3c
000000b0: 2791 153e 5c74 11be 03be 91bd f1ee c7bd
000000c0: c77b febc ff85 b03d c833 35bd 0e9a 573e
000000d0: 1ba9 753e 016d 583e c2af 9a3d ba32 17be
000000e0: 04d1 183e d646 fa3c 78c3 403e 7e25 383e
000000f0: e690 1c3e 14be 783c bd89 82bd 1da6 513e
00000100: 01f6 643b de12 b7ba d03a d7bd 2846 1dbe
00000110: 4a74 483d dd76 fcba e466 b0bd 156b 703e
00000120: af5a 31be d298 cbbd ffd8 8f3e a6d4 683e
00000130: 0e98 65be 272a 1e3e 920c 233e 7c43 93bd
00000140: 6806 03be a1ab b1bc cffe 9bbd 0bcb 5e3e
00000150: a06a bd3d 0d9a 253e 0431 5cbc d6e9 0a3e
00000160: 2a26 ff3d f025 81be 43dd af3d bb96 1fbe
00000170: 8bb7 8d3d b893 fdbd 8ca4 0ebe c04c 6e3e
00000180: 45f5 59be c84c 073e a654 873e e394 bf3d
00000190: 7df7 2b3e 4dcb 5f3e df68 0abe 64d8 64bd
000001a0: 500b 63be 30d0 873e 8c99 893d d229 f1bd
000001b0: 2316 4f3d d502 ffbd 996c eebc 7486 1a3e
000001c0: 9fc0 90ba 43d6 5fbe 1f81 23bd 36dc 82be
000001d0: 5f9c 5d3e e3ee 61be 03a6 29be e660 ccbc
000001e0: 81e8 17be d158 d0bd ea40 f3bd 7396 983d
000001f0: 53bc 873c 90a4 b63d 096a b83d 1a3d aabd
00000200: dff0 14be 29a2 93bd 414c e93d f510 70bc
00000210: ce9e 223e 5629 4cbe a660 59be 8579 15bd
00000220: 2657 7c3d 5261 d03d a3b7 7c3e 2205 643b
00000230: 7daa 71be b8e6 813e fa56 ab3b af7d 3fbe
00000240: b12d 80ba 7de9 2a3e b813 ca3c 156d d3bc
00000250: 0447 863d 2782 103e 744e 213d da52 fbbd
00000260: 36bf 473d 3d40 3fbd fe82 113e 2af3 91be
00000270: bc64 843e 2ab9 a73d 75ea 863e 2e4d d33d
00000280: 13f5 38be b2c8 85bd 0b89 4dbd 3d70 84bd
00000290: 1fd4 4cbd 7e8e 62bd 854f c1bd 8200 f1bd
000002a0: 92ff 3bbe eb40 fa3d 32bb 16be d295 ddbd
000002b0: 6418 933e fea6 163e 9d06 d73c 972d 903e
000002c0: 5ca0 9e3c e051 823e 0d5e 593c aaf0 343d
000002d0: 5c47 cebd f2c1 22be 7e2f 64be fdeb 7a3e
000002e0: c8fd 0e3c 53f1 3b3e 4e0e d13d bd7d 8b3d
000002f0: 0031 45be 775b e9bb 95c6 2a3d 4379 45be
00000300: 1956 703e a6a2 cdbd e83f c5bd 41e5 d8bd
00000310: 1443 943d a989 8b3d 3279 96bd 808a 27bc
00000320: 3d2f 29be 101a 8f3d 625a de3d 5ba2 1fbe
00000330: 3ede 5f3e 087b 15be 617a 663e 64ab 713e
00000340: 1541 8ebd d7ea 21be d2bf 29be 6e70 583e
00000350: 24ac 88be 1eff f33d 43a3 6c3e 8297 8dbd
00000360: c108 1b3e 4825 bc3c 8a97 363d 04f4 26be
00000370: ae1d 8f3e 86a9 753d 4da7 6b3e f791 13be
00000380: 0e72 8abe e4df eb3c e9e8 923e 9359 503e
00000390: cd3c 213c 3597 cd3d 884c 60be cc66 a0bc
000003a0: 1c3e a1bd f6e3 87be e3fe 15be 71b8 07be
000003b0: cd91 4fbe 6639 5f3e 2955 8c3d 24f3 16be
000003c0: 7858 08be 088b 22be 635d 013e 8ff7 8bbe
000003d0: b957 a4bd 69f3 cabd c48d 4ebe fc74 34be
000003e0: bb35 7c3e 389f f33d f6d3 1a3e eaf2 9bbc
000003f0: fd38 9f3d 5c50 4e3e a0b0 5fbd dd79 163e

aggregator.bin_agg.hidden.1.bias f4 [16]
-0.12187011 0.037744854 -0.08238493 -0.081022024 -0.03817245 -0.17255883 0.25494042 0.20140947
0.103230946 0.062284864 -0.038599834 0.0656538 0.122822836 -0.15668464 0.0031137518 -0.029351482
00000000: 0997 f9bd 599a 1a3d 6eb9 a8bd e0ee a5bd
00000010: b75a 1cbd 43b3 30be 8d87 823e 493e 4e3e
00000020: bf6a d33d 6a1e 7f3d dc1a 1ebd 8075 863d
00000030: 8a8a fb3d f071 20be 1610 4c3b 8572 f0bc

aggregator.bin_agg.hidden.3.weight f4 [16, 16]
0.25989076 0.22208136 -0.26527858 0.13329934 -0.25775886 0.25451282 0.17516322 -0.13538882
-0.15672852 0.20168144 0.30035087 0.1855888 -0.105400756 0.15248889 -0.18752389 -0.2243681
-0.12432463 0.07012306 0.15616064 -0.26267064 -0.18955202 0.24159485 -0.25000918 -0.23173405
0.027108727 0.08373951 -0.19586726 0.025162729 -0.23344012 -0.070175506 0.25057665 0.14449497
0.009925285 -0.21270423 -0.04669316 0.07706146 -0.032632027 0.053147476 -0.057795525 -0.3252345
0.21279085 -0.016863473 -0.027647492 -0.23524511 0.16493475 0.13874882 0.17809878 -0.17742696
0.24968657 0.2877322 -0.19932356 0.107786804 0.04643669 0.15257081 0.2841004 0.21384831
-0.24829538 -0.104211286 0.20508084 -0.1308633 0.30076662 0.23036093 -0.0724428 -0.11490887
0.23594521 0.16020095 -0.18600565 -0.18164739 -0.10927365 0.08880803 -0.070881344 -0.27394828
-0.21659507 -0.019778417 0.06585964 0.030847114 0.22731863 0.041441057 -0.0041418113 0.21677627
-0.27045277 0.21150985 0.17293365 -0.03220807 -0.019197855 0.07920945 -0.17893365 -0.17248625
-0.10140771 0.06045404 0.13250959 0.10849103 -0.09018768 0.08554532 -0.13916244 0.09694252
0.201282 -0.21179077 -0.082641065 0.16547589 0.0099082785 0.15666115 0.24167883 0.12997197
-0.09481419 -0.07578908 0.16995744 -0.021986729 -0.15571609 -0.05395277 0.2622408 0.22750083
-0.009067722 -0.24543487 -0.026619332 -0.07248061 0.13665438 -0.13458653 -0.2761106 0.05771919
-0.1540996 -0.18257351 -0.22723272 0.12226791 -0.14431395 -0.2313601 -0.24157023 0.27719393
0.0027381752 0.13178386 -0.19937009 -0.15284333 -0.1362286 -0.046603598 0.18681242 -0.29159725
-0.22163004 0.233326 0.049910966 -0.0061745965 0.109221555 0.09417097 -0.08260666 -0.15844017
-0.27292857 -0.20945537 0.25877836 -0.07425368 0.26711923 -0.13201442 0.21873043 -0.14975423
-0.12843913 0.0786599 -0.27026537 0.07962092 -0.07155664 -0.1878446 -0.01817397 -0.12129137
-0.07129036 -0.25323075 -0.18139718 0.0993801 0.007842625 0.11850073 0.12472432 0.0048034927
-0.22412422 0.08884158 -0.08410554 0.103212744 0.08350205 -0.14050314 0.2673008 -0.29394907
0.04571444 0.21697445 -0.056462567 -0.044539683 -0.22239819 -0.22826746 0.035540253 -0.19171222
0.0073636924 0.13023727 0.13711238 0.06777134 0.11716309 -0.022325851 0.09496673 0.17372888
-0.2569986 -0.11712446 -0.08002291 0.014513954 0.15208404 -0.024586394 -0.14182118 -0.1580794
-0.03636101 -0.04845036 -0.10834999 0.035702493 0.13248134 -0.10906787 0.1693659 0.051318463
-0.15870526 -0.21589199 0.20695381 0.096239656 0.042412996 0.085087135 0.016870357 -0.07548511
0.119917855 -0.2060656 -0.034493815 0.24383295 -0.28628632 0.13183264 0.19605477 0.020324355
-0.053965382 0.017281223 -0.13502392 0.1426673 -0.22876422 -0.1930295 0.18140413 0.2499618
-0.2178115 0.114779286 0.28349364 -0.23136532 0.1520655 -0.049581427 -0.066641346 0.21284258
-0.04213387 0.042941686 0.25234285 0.039595272 0.20040266 -0.12604253 -0.29381597 0.17796057
0.187701 -0.25183487 0.11346436 -0.013311562 0.14783569 0.04026742 -0.12609845 -0.016776849
00000000: 6710 853e 4c69 633e 98d2 87be 9f7f 083e
00000010: f8f8 83be 814f 823e fd5d 333e 5ea3 0abe
00000020: 717d 20be 9485 4e3e 97c7 993e fe0a 3e3e
00000030: 5adc d7bd 0c26 1c3e 4306 40be c0c0 65be
00000040: e99d febd ae9c 8f3d 93e8 1f3e c47c 86be
00000050: ed19 42be a464 773e 3401 80be b14b 6dbe
00000060: 1f13 de3c 9f7f ab3d 6d91 48be 1122 ce3c
00000070: ed0a 6fbe 2db8 8fbd 954b 803e 7df6 133e
00000080: aa9d 223c 23cf 59be 5441 3fbd 66d2 9d3d
00000090: 29a9 05bd 2bb1 593d 00bb 6cbd 2385 a6be
000000a0: d8e5 593e 4425 8abc fe7c e2bc 18e4 70be
000000b0: a8e4 283e 2c14 0e3e 875f 363e 6aaf 35be
000000c0: d6ad 7f3e a351 933e 7a1b 4cbe 54bf dc3d
000000d0: 6634 3e3d 863b 1c3e 9c75 913e 0dfb 5a3e
000000e0: 2541 7ebe ba6c d5bd b600 523e 0701 06be
000000f0: 15fe 993e bce3 6b3e e45c 94bd 5755 ebbd
00000100: 9f9b 713e b80b 243e 4478 3ebe c601 3abe
00000110: ddca dfbd fce0 b53d 3d2a 91bd f342 8cbe
00000120: 19cb 5dbe 5906 a2bc 6be1 863d 16b3 fc3c
00000130: 37c6 683e 19be 293d 08b8 87bb 99fa 5d3e
00000140: c978 8abe 0a96 583e 8515 313e 9cec 03bd
00000150: d244 9dbc 9038 a23d 623a 37be 3ca0 30be
00000160: d8ae cfbd a89e 773d 98b0 073e 8c30 de3d
00000170: 52b4 b8bd 6232 af3d 9980 0ebe cd89 c63d
00000180: de1c 4e3e aedf 58be b83f a9bd 8372 293e
00000190: 5556 223c c86b 203e a87a 773e 5f17 053e
000001a0: f12d c2bd 4e37 9bbd 5309 2e3e 831d b4bc
000001b0: 0a74 1fbe 94fd 5cbd 6d44 863e faf5 683e
000001c0: c890 14bc 4753 7bbe c910 dabc b770 94bd
000001d0: 20ef 0b3e 0dd1 09be 5e5e 8dbe f56a 6c3d
000001e0: 49cc 1dbe 8df4 3abe b2af 68be 9967 fa3d
000001f0: 09c7 13be a9e9 6cbe 305e 77be 5dec 8d3e
00000200: f572 333b 59f2 063e ac27 4cbe f682 1cbe
00000210: 837f 0bbe 6ae3 3ebd c14b 3f3e 3c4c 95be
00000220: fcf2 62be 03ed 6e3e 716f 4c3d 4554 cabb
00000230: 8daf df3d b6dc c03d ae2d a9bd 243e 22be
00000240: 4bbd 8bbe 787b 56be 997e 843e 5012 98bd
00000250: dac3 883e ca2e 07be dffa 5f3e 2c59 19be
00000260: 8c85 03be 7118 a13d 3960 8abe 4b10 a33d
00000270: 4a8c 92bd 565a 40be 94e1 94bc 9c67 f8bd
00000280: ae00 92bd 76a7 81be 2fc0 39be cb87 cb3d
00000290: 5a7e 003c 83b0 f23d 776f ff3d 9e66 9d3b
000002a0: d280 65be 93f2 b53d 863f acbd 3461 d33d
000002b0: 1f03 ab3d 0ee0 0fbe a7db 883e 7e80 96be
000002c0: 113f 3b3d 8d2e 5e3e 4b45 67bd 3e6f 36bd
000002d0: 5abc 63be f2be 69be a892 113d 3550 44be
000002e0: 214b f13b eb5c 053e 3067 0c3e b3cb 8a3d
000002f0: 34f3 ef3d b4e4 b6bc eb7d c23d fce5 313e
00000300: 5295 83be f3de efbd 0de3 a3bd efcb 6d3c
00000310: ebbb 1b3e 6869 c9bc 9239 11be 91df 21be
00000320: 48ef 14bd e273 46bd 99e6 ddbd c73c 123d
00000330: 30a9 073e fa5e dfbd 416e 2d3e 4f33 523d
00000340: a283 22be ca12 5dbe b3eb 533e 4c19 c53d
00000350: 40b9 2d3d 2a42 ae3d b433 8a3c f097 9abd
00000360: 7e97 f53d dc02 53be 6349 0dbd 58af 793e
00000370: 1f94 92be 23ff 063e 95c2 483e 437f a63c
00000380: ce0a 5dbd 5a91 8d3c b643 0abe 6017 123e
00000390: 2b41 6abe 86a9 45be 01c2 393e fcf5 7f3e
000003a0: fa09 5fbe 6711 eb3d 1426 913e 08eb 6cbe
000003b0: 0fb7 1b3e e515 4bbd 427b 88bd 68f3 593e
000003c0: 9194 2cbd 9fe3 2f3d 1533 813e a72e 223d
000003d0: 5b36 4d3e 4b11 01be 0c6f 96be 4c3b 363e
000003e0: b134 403e 80f0 80be 0160 e83d bd18 5abc
000003f0: 3d62 173e 73ef 243d f41f 01be 9a6f 89bc

aggregator.bin_agg.hidden.3.bias f4 [16]
0.06932646 -0.05810389 -0.24391262 0.20874856 -0.2777587 -0.25053248 -0.07908474 -0.07351038
-0.14269738 -0.0069448124 0.2748612 0.16990834 -0.29342076 -0.15039483 -0.1561092 -0.22069466
00000000: 08fb 8d3d 58fe 6dbd 3bc4 79be 2fc2 553e
00000010: 6336 8ebe cb45 80be 2ef7 a1bd 9c8c 96bd
00000020: 431f 12be 4f91 e3bb 9bba 8c3e 74fc 2d3e
00000030: 3f3b 96be 1a01 1abe 17db 1fbe c8fd 61be

output.0.weight f4 [32, 16]
-0.01598722 -0.30159554 -0.11931342 -0.0033917401 -0.014188545 -0.19746916 -0.20310365 0.036319453
0.022108173 -0.096214555 -0.054894056 0.0693543 -0.06112384 0.096928805 -0.087816596 0.0685591
0.07711635 -0.027925868 0.08415938 -0.0961303 -0.12341107 -0.053814936 -0.21503249 0.061732773
0.015718428 -0.09772893 0.29185668 -0.24290965 0.06663716 0.13830595 -0.16013362 0.19707167
0.23026855 -0.14297545 0.084598035 0.1913388 0.09324089 -0.14172576 0.09470048 -0.009306582
0.044488136 -0.15751469 -0.23813078 -0.011787695 0.09823371 -0.18174513 0.19863683 -0.20385407
0.15096322 0.060671803 -0.21157987 0.069264315 0.15861557 -0.12900934 -0.19023743 0.16097759
-0.1150845 -0.22760893 -0.17330217 0.27468893 -0.12522797 -0.08405701 0.26277506 0.18402591
-0.14539102 -0.116130106 0.14175601 0.25717863 0.14155583 -0.0062104445 0.19340484 -0.2532203
-0.09267632 -0.1191727 -0.058187574 0.24216126 0.11343978 -0.15036419 0.10467498 0.056479964
-0.24409649 -0.049210846 -0.14191626 0.20094512 -0.08624923 0.09570466 0.030059725 0.07593869
-0.060211085 0.18728417 -0.020773895 0.06670271 0.055556722 0.2501021 -0.13978241 -0.21605933
0.031263262 -0.04709103 -0.12899347 0.19925593 0.31539726 0.17486611 -0.043531004 0.15203546
0.19698513 -0.3146908 -0.19005698 0.2609402 0.10116038 0.11902839 0.18594407 -0.030713018
-0.22971475 -0.03294355 -0.13938017 -0.20951521 -0.035129692 -0.09459032 0.045419525 -0.18172473
-0.053015895 0.030235276 0.13175464 0.12598148 -0.07235479 0.16138355 -0.23064864 0.010342454
-0.27787346 0.08343711 -0.03858579 0.014844834 0.022015719 -0.21330108 0.14261913 0.18027647
-0.21921848 0.017687771 0.010803541 -0.007189465 0.039969176 0.015996873 -0.07160054 0.009125741
-0.03356415 0.047587648 0.12370049 -0.10710831 -0.17944844 0.11351555 0.21338025 0.03321657
0.025858484 0.059980582 -0.0047199694 0.06972973 -0.03648755 0.052630495 0.027336871 -0.15755153
-0.03428162 -0.1413402 0.16269583 0.22109202 0.115449056 0.021618634 -0.23795857 0.0011562684
0.27646247 -0.09883529 -0.20232913 0.27721474 0.12026397 -0.13168442 0.09852507 -0.0186371
0.2597321 0.17734855 -0.25394353 0.2604742 0.30502546 -0.0007879998 -0.13491452 -0.09274125
0.11062353 0.10616201 -0.28962174 -0.16656542 -0.28843623 -0.2644783 0.26582998 0.059694946
-0.070459254 -0.23503068 -0.090114206 -0.13769577 0.05394839 0.026398918 -0.077415265 0.029170563
-0.035829008 0.24224287 0.057288844 0.027131803 0.17825004 0.22601612 -0.21239837 -0.10341684
0.3027319 -0.19734117 0.122858495 0.036776464 0.31336468 0.13367367 -0.054016363 -0.032337535
0.080587715 -0.239309 -0.09747513 0.025424838 -0.17247358 0.012965753 0.293091 -0.057469614
0.21719177 -0.24821016 0.19723535 -0.0779996 0.14831977 0.22557713 -0.2107599 0.028034488
0.049675863 -0.059592333 -0.26644722 0.1850595 0.022067824 -0.098078586 0.016776994 -0.24616748
-0.18797015 -0.2425764 0.14655435 0.07014076 0.091901444 -0.027476363 -0.19604926 0.05190083
0.054440945 0.2943578 0.030551225 -0.19852808 0.17904285 0.21168104 -0.17654999 0.20832449
00000000: a1f7 82bc bb6a 9abe 985a f4bd f547 5ebb
00000010: 1277 68bc 5b35 4abe 67fa 4fbe b5c3 143d
00000020: 331c b53c 230c c5bd 97d8 60bd a109 8e3d
00000030: fe5c 7abd 9c82 c63d 30d9 b3bd b768 8c3d
00000040: 2def 9d3d cac4 e4bc c15b ac3d f6df c4bd
00000050: f1be fcbd 0d6d 5cbd 7a31 5cbe 81db 7c3d
00000060: efc3 803c 1b26 c8bd 3d6e 953e 4fbd 78be
00000070: 1079 883d 13a0 0d3e 11fa 23be 28cd 493e
00000080: 85cb 6b3e 2868 12be bc41 ad3d 52ee 433e
00000090: 14f5 be3d 8f20 11be 53f2 c13d a27a 18bc
000000a0: 3139 363d 884b 21be 8ed8 73be 2d21 41bc
000000b0: c12e c93d 651b 3abe 7467 4b3e 1fbf 50be
000000c0: 1a96 1a3e ff82 783d 65a8 58be 73da 8d3d
000000d0: 1f6c 223e 061b 04be 9acd 42be 4fd7 243e
000000e0: 6cb1 ebbd 5112 69be 2076 31be 07a4 8c3e
000000f0: c33b 00be 1526 acbd 748a 863e 4a71 3c3e
00000100: 62e1 14be 9fd5 edbd 7d28 113e ebac 833e
00000110: 03f4 103e fc80 cbbb eb0b 463e 17a6 81be
00000120: 15cd bdbd d110 f4bd 1856 6ebd 1ff9 773e
00000130: 1e53 e83d 12f9 19be d65f d63d 8957 673d
00000140: 6ef4 79be 5091 49bd 7f52 11be 8fc4 4d3e
00000150: 70a3 b0bd ce00 c43d d03f f63c be85 9b3d
00000160: e69f 76bd 6cc7 3f3e 042e aabc 6e9b 883d
00000170: 728f 633d 620d 803e 1f23 0fbe a83e 5dbe
00000180: e80d 003d 86e2 40bd dd16 04be bf09 4c3e
00000190: c07b a13e 1a10 333e 914d 32bd 2faf 1b3e
000001a0: 78b6 493e 271f a1be 4c9e 42be f499 853e
000001b0: 2c2d cf3d 28c5 f33d 1f68 3e3e de99 fbbc
000001c0: 583a 6bbe d1ef 06bd adb9 0ebe 288b 56be
000001d0: 27e4 0fbd 92b8 c1bd d309 3a3d 0c16 3abe
000001e0: 3227 59bd f8af f73c b0ea 063e 4a01 013e
000001f0: c02e 94bd bb41 253e 282f 6cbe 6573 293c
00000200: 6e45 8ebe 13e1 aa3d 220c 1ebd bf37 733c
00000210: 4f5a b43c 996b 5abe c00a 123e 659a 383e
00000220: cf7a 60be f2e5 903c 5601 313c 9b95 ebbb
00000230: b8b6 233d e00b 833c 4ea3 92bd 2284 153c
00000240: 907a 09bd 44eb 423d af56 fd3d 9a5b dbbd
00000250: 55c1 37be d77a e83d 5a80 5a3e 190e 083d
00000260: 2cd5 d33c 33ae 753d f9a9 9abb 76ce 8e3d
00000270: f873 15bd 1393 573d 93f1 df3c 3055 21be
00000280: e26a 0cbd 7cbb 10be bc99 263e f265 623e
00000290: 8e70 ec3d 9019 b13c 69ab 73be ee8d 973a
000002a0: 7d8c 8d3e 286a cabd 5e2f 4fbe 17ef 8d3e
000002b0: f54c f63d 48d8 06be 83c7 c93d d5ac 98bc
000002c0: 9bfb 843e dc9a 353e e304 82be e05c 853e
000002d0: 4c2c 9c3e c591 4eba 0827 0abe 20ef bdbd
000002e0: 978e e23d 786b d93d 4d49 94be 2090 2abe
000002f0: eaad 93be b369 87be de1a 883e b082 743d
00000300: f14c 90bd e2ab 70be cc8d b8bd 1f00 0dbe
00000310: fdf8 5c3d 8b42 d83c e58b 9ebd 1bf7 ee3c
00000320: 70c1 12bd 840e 783e b5a7 6a3d 8443 de3c
00000330: 2e87 363e c570 673e f57e 59be 35cc d3bd
00000340: adff 9a3e ce13 4abe 3c9d fb3d eba2 163d
00000350: 5671 a03e c0e1 083e 4340 5dbd 5d74 04bd
00000360: 2c0b a53d 6b0d 75be 0aa1 c7bd c047 d03c
00000370: ea9c 30be 4f6e 543c 0610 963e 4265 6bbd
00000380: 8567 5e3e ce2a 7ebe 10f8 493e 41be 9fbd
00000390: 23e1 173e b1fd 663e 71d1 57be 95a8 e53c
000003a0: eb78 4b3d 1717 74bd c56b 88be 3d80 3d3e
000003b0: 95c7 b43c 6ddd c8bd e86f 893c 5413 7cbe
000003c0: 3f7b 40be f365 78be 5812 163e f5a5 8f3d
000003d0: d336 bc3d 1c16 e1bc 23c1 48be f795 543d
000003e0: 78fd 5e3d 11b6 963e 9046 fa3c f24a 4bbe
000003f0: 0257 373e eac2 583e 85c9 34be 0453 553e

output.0.bias f4 [32]
0.05942366 0.21321867 -0.015298929 0.14283535 -0.021555385 -0.10586736 -0.111278184 0.0060633062
-0.1135062 -0.14150752 0.005103745 0.028895864 0.07928256 -0.05258213 0.07646499 0.06624105
-0.1157269 0.17821077 -0.03848094 -0.060956508 -0.07495242 0.085610256 0.2022605 0.12661941
0.2725111 0.15901522 0.13601057 -0.21054856 0.07726775 0.0021115288 0.05305901 0.015797153
00000000: 3966 733d ff55 5a3e 5ca8 7abc 6e43 123e
00000010: eb94 b0bc fdd0 d8bd d1e5 e3bd b3ae c63b
00000020: f075 e8bd 59e7 10be 513d a73b 05b7 ec3c
00000030: e55e a23d 5c60 57bd ad99 9c3d 63a9 873d
00000040: 3a02 edbd e27c 363e 319e 1dbd 88ad 79bd
00000050: a880 99bd 6e54 af3d 601d 4f3e 85a8 013e
00000060: 9386 8b3e e3d4 223e 5b46 0b3e 0b9a 57be
00000070: 8e3e 9e3d 9361 0a3b 6854 593d 0869 813c

output.2.weight f4 [32, 32]
0.00018369034 -0.0091978265 0.0668223 -0.009868248 0.13563934 0.07117538 0.09850332 0.04443652
-0.057120394 -0.007684615 0.118411474 0.21567208 -0.10304241 0.053673398 -0.073740155 -0.009272296
-0.18796974 -0.11508732 0.002115872 0.060452156 0.11608514 0.043674234 -0.023073863 0.073266946
-0.018135715 -0.18667565 0.015648387 0.026436927 -0.036804657 0.19628878 -0.0004416559 -0.067528285
-0.07951848 -0.13751107 0.19780597 -0.09141656 -0.013097706 -0.13743037 0.15657471 0.08358872
0.046932917 -0.0059413677 0.075673915 0.23889782 -0.21691279 0.059205372 0.22297971 0.0207105
0.011427862 -0.22032419 -0.07000068 0.069197945 0.039486233 -0.088158526 0.043990698 -0.01819378
0.17746451 -0.1439183 0.08860317 -0.09055308 0.09379858 0.13576566 0.13394202 -0.10298825
0.14204557 -0.18338136 0.18086013 -0.084467664 0.14414391 -0.19612071 -0.02745511 -0.03906909
-0.063450426 -0.16896948 0.02574472 0.05617802 -0.109657116 -0.088081814 -0.08447994 -0.06496869
-0.22800979 -0.015321098 0.10032081 -0.18908638 0.074649334 -0.08662984 -0.14567418 0.14923334
0.090309 -0.08130422 -0.22522731 -0.09737305 0.08896826 0.0430764 0.18412611 -0.10293924
0.007839094 -0.15258521 0.17615536 0.08627013 0.21351814 -0.049533807 0.16609809 0.015485191
-0.10745559 0.04256035 -0.06021436 0.19564284 -0.12911463 0.22255114 0.0013537692 -0.09444049
-0.0031204864 -0.19367872 -0.047073483 0.01481826 0.09440678 0.12283833 -0.22031085 -0.08005015
0.15152438 -0.17249294 -0.06170691 0.08222712 -0.01798669 0.019429935 0.082955465 -0.16948362
0.020369012 0.063505486 0.18604411 -0.009097292 0.14500155 -0.07989576 0.13726051 -0.024472155
-0.1600165 -0.12047277 0.13531865 0.12940863 -0.08824234 0.09054179 0.036476634 -0.07537483
-0.1701358 -0.008434261 0.087644935 0.07097789 0.07158845 0.06748221 0.0019688369 0.06099181
0.10962636 -0.066805296 0.0736535 0.018980412 -0.04410179 0.23664664 0.12919049 -0.046330035
0.12883052 -0.0022869946 -0.14342171 -0.11480926 0.024818711 -0.05208315 0.050938148 -0.11427998
0.10336949 0.008753711 -0.09862776 -0.12277819 0.05458352 -0.22121842 0.040724933 -0.1049398
0.044856794 0.17607152 0.13040869 0.087788455 -0.20806296 -0.15296577 0.23848559 -0.05764178
0.047281664 -0.107653685 0.14519142 0.08502064 0.17456126 -0.12365352 -0.07233217 0.17650332
0.0020776424 0.07841698 0.09085722 -0.12116787 0.078665026 -0.061825264 -0.20194477 -0.058245957
-0.09654621 0.20632859 0.050868105 -0.082497716 -0.07366062 0.057193544 0.054236468 0.20726837
0.13645768 -0.08103337 0.14257096 -0.018872317 -0.035148595 -0.107255526 0.031897973 -0.048738986
-0.17555933 0.20570794 -0.052075066 0.055742476 0.08608224 0.078865275 0.010406902 -0.061601337
0.04120749 0.10125111 -0.08277177 -0.009493668 -0.062703356 0.027917802 -0.08000953 0.06647767
0.10120906 -0.057077378 0.025843501 0.019495387 0.120555185 0.076811425 0.03987135 0.14034224
0.08743592 -0.0023275076 -0.04497562 0.13165504 0.012902053 0.069487326 0.055604476 -0.13757268
0.0019335431 0.19212501 -0.08240862 -0.109493665 -0.123220496 -0.12441373 -0.10769632 0.0031476547
00000000: 009d 4039 7bb2 16bc 21da 883d 6fae 21bc
00000010: 0ae5 0a3e 66c4 913d 1cbc c93d 1203 363d
00000020: 13f7 69bd 39cf fbbb b781 f23d 24d9 5c3e
00000030: e607 d3bd a3d8 5b3d 1405 97bd d4ea 17bc
00000040: 247b 40be e7b2 ebbd 71aa 0a3b ae9c 773d
00000050: 0cbe ed3d c1e3 323d 6605 bdbc fb0c 963d
00000060: 5a91 94bc e727 3fbe 0c31 803c 4192 d83c
00000070: 7bc0 16bd edff 483e 0d8e e7b9 454c 8abd
00000080: 96da a2bd b4cf 0cbe a68d 4a3e 9b38 bbbd
00000090: c397 56bc 8cba 0cbe 1f55 203e 9030 ab3d
000000a0: bb3c 403d ceaf c2bb edfa 9a3d a1a1 743e
000000b0: 631e 5ebe 5581 723d cb54 643e 11a9 a93c
000000c0: ed3b 3b3c aa9c 61be 845c 8fbd a7b7 8d3d
000000d0: 51bc 213d 758c b4bd 972f 343d 1f0b 95bc
000000e0: 42b9 353e 525f 13be 9475 b53d e573 b9bd
000000f0: 7819 c03d 2706 0b3e 1928 093e 81eb d2bd
00000100: 6574 113e 53c8 3bbe 6633 393e 62fd acbd
00000110: 769a 133e ded3 48be 8ae9 e0bc e906 20bd
00000120: 4cf2 81bd 5606 2dbe 97e6 d23c ec1a 663d
00000130: e993 e0bd 3d64 b4bd d203 adbd 4e0e 85bd
00000140: 667b 69be 5805 7bbc ff74 cd3d dc9f 41be
00000150: c0e1 983d fc6a b1bd 9d2b 15be a0d0 183e
00000160: edf3 b83d d482 a6bd fda1 66be 866b c7bd
00000170: fe34 b63d e170 303d 8e8b 3c3e cfd1 d2bd
00000180: 8b6f 003c 4c3f 1cbe 1262 343e 65ae b03d
00000190: 80a4 5a3e f6e3 4abd 9e15 2a3e 99b5 7d3c
000001a0: ad11 dcbd c353 2e3d 55a3 76bd 9956 483e
000001b0: a036 04be 72e4 633e f570 b13a 046a c1bd
000001c0: 1381 4cbb b753 46be 20d0 40bd 4ac8 723c
000001d0: 5858 c13d aa92 fb3d 2b99 61be 55f1 a3bd
000001e0: 3529 1b3e fda1 30be 63c0 7cbd b166 a83d
000001f0: d358 93bc 872b 9f3c 8ee4 a93d 1d8d 2dbe
00000200: eadc a63c 2a0f 823d 5982 3e3e cf0c 15bc
00000210: 497b 143e 63a0 a3bd 058e 0c3e d479 c8bc
00000220: 5edb 23be 6dba f6bd f990 0a3e b283 043e
00000230: 66b8 b4bd f96d b93d 8668 153d 1e5e 9abd
00000240: 1438 2ebe db2f 0abc 307f b33d db5c 913d
00000250: f79c 923d 1d34 8a3d 9a07 013b 8cd2 793d
00000260: c983 e03d 37d1 88bd a5d7 963d cf7c 9b3c
00000270: 14a4 34bd 7f53 723e 834a 043e 90c4 3dbd
00000280: 26ec 033e 67e1 15bb 24dd 12be 1e21 ebbd
00000290: 9c50 cb3c 2455 55bd 85a4 503d 9f0b eabd
000002a0: 62b3 d33d ba6b 0f3c 5afd c9bd 2273 fbbd
000002b0: f892 5f3d 1587 62be 30cf 263d aeea d6bd
000002c0: c2bb 373d 184c 343e db89 053e 6fca b33d
000002d0: 750e 55be 0fa3 1cbe 9135 743e c919 6cbd
000002e0: 6baa 413d 8979 dcbd 0fad 143e 4d1f ae3d
000002f0: 30c0 323e 0f3e fdbd e422 94bd 49bd 343e
00000300: 0e29 083b 1599 a03d 5a13 ba3d dc26 f8bd
00000310: 211b a13d 7d3c 7dbd 9cca 4ebe 5093 6ebd
00000320: 05ba c5bd cd47 533e 135b 503d 90f4 a8bd
00000330: 61db 96bd c743 6a3d 0f27 5e3d 293e 543e
00000340: 90bb 0b3e d3f4 a5bd 1ffe 113e 1e9a 9abc
00000350: f9f7 0fbd c9a8 dbbd 73a7 023d 88a2 47bd
00000360: d3c5 33be 1aa5 523e aa4c 55bd 3952 643d
00000370: e34b b03d 1e84 a13d b681 2a3c af51 7cbd
00000380: 2fc9 283d be5c cf3d 3f84 a9bd 548b 1bbc
00000390: 9e6a 80bd e0b3 e43c 09dc a3bd 7225 883d
000003a0: b246 cf3d f8c9 69bd c0b5 d33c cab4 9f3c
000003b0: a3e5 f63d 4f4f 9d3d 2450 233d e0b5 0f3e
000003c0: 9b11 b33d 1989 18bb 5b38 38bd 94d0 063e
000003d0: 2263 533c 5f4f 8e3d 85c1 633d dadf 0cbe
000003e0: f16e fd3a 6bbc 443e dac5 a8bd 373e e0bd
000003f0: 075b fcbd a0cc febd e38f dcbd e248 4e3b

output.2.bias f4 [32]
-0.024997521 -0.008134203 0.0023657207 -0.07541363 -0.008182421 0.19278978 -0.031524256 0.05751401
-0.039420523 0.14101519 -0.123851426 -0.024635399 0.007866076 -0.0045278547 -0.0080339415 0.117557496
0.016976163 0.11102779 -0.010853796 0.15283497 -0.024919815 -0.008023178 -0.054131493 -0.08901014
0.01283936 -0.06576344 0.113637745 -0.073231176 0.11018878 0.0019665316 -0.028838128 0.03822761
00000000: 9ac7 ccbc 5245 05bc 350a 1b3b 7672 9abd
00000010: 900f 06bc af6a 453e 941f 01bd d093 6b3d
00000020: 6a77 21bd 4966 103e d1a5 fdbd 2dd0 c9bc
00000030: b7e0 003c 665e 94bb cba0 03bc fcc1 f03d
00000040: 9811 8b3c 8a62 e33d 1fd4 31bc c580 1c3e
00000050: a424 ccbc a673 03bc fcb8 5dbd f34a b6bd
00000060: 2e5c 523c fcae 86bd e8ba e83d 3afa 95bd
00000070: a8aa e13d ede0 003b f03d ecbc 8e94 1c3d

output.4.weight f4 [1, 32]
-0.07346379 -0.10792987 -0.14015584 -0.15669969 -0.23348957 0.16116275 0.10931797 0.053842522
0.07434585 0.121461876 0.18322834 -0.2000618 -0.1341625 -0.13651642 -0.09283382 0.08833457
0.20049739 0.20886374 -0.21173935 0.113178656 0.20776989 -0.1373963 0.11019385 -0.18789996
-0.13539381 0.14056455 0.1674417 0.2362651 0.21206312 -0.13877831 -0.14828467 -0.07698643
00000000: 2f74 96bd 560a ddbd 0385 0fbe e275 20be
00000010: e417 6fbe d907 253e 1ae2 df3d fa89 5c3d
00000020: a342 983d 01c1 f83d 36a0 3b3e 00dd 4cbe
00000030: e561 09be f6ca 0bbe a81f bebd c1e8 b43d
00000040: 304f 4d3e 60e0 553e 33d2 58be 36ca e73d
00000050: a1c1 543e 9eb1 0cbe 50ad e13d d968 40be
00000060: ada4 0abe 27f0 0f3e d675 2b3e 7aef 713e
00000070: 1327 593e e71b 0ebe f0d7 17be 10ab 9dbd
